Deep Learning Loinc Standardization/PyHealth_Contribution/examples/loinc_mapping_mimic3/weights/pytorch_model.bin (torch, 199061 bytes, 2 tensors)

fc.1.weight f4 [128, 384]
-1.3928272 -3.0046651 0.002953013 -0.5984854 0.3064404 -0.19845048 -1.1802721 1.3433504
-0.15804365 -0.19215004 -0.20318522 -0.35523167 -0.47461396 1.4774677 0.2814331 0.45852643
-0.3281087 -0.93139523 1.2169437 0.3362358 0.069306575 -1.0863554 -1.6123697 1.2130094
1.0526893 0.74920565 -1.0709997 -1.3659134 0.2704049 0.6999616 0.9086405 -0.9800773
-0.41001913 -1.2637365 -0.17904739 0.1421862 -0.4426606 0.4531229 -1.0415795 -0.37529403
0.27859524 -0.33210075 -0.73906785 -0.24709156 -0.25550112 -0.27866295 0.609711 -1.013945
0.5102755 -1.2844199 1.0823951 1.3492182 -1.3012978 0.1774861 1.5638193 1.4658265
0.8513924 1.7446978 0.12712687 0.18168624 -1.8669314 1.2418022 1.0196122 -0.62678474
-1.491145 -0.5429661 -0.31235602 -0.5160952 -2.0447948 -1.5462012 -0.82730484 2.1674871
-0.059004 1.3697718 1.1518576 2.1700723 -0.7378223 -2.2130303 -0.8655949 0.7469239
-1.2339424 0.33810028 1.7053242 0.6140226 0.021757368 -0.20876637 -1.0012759 -0.78600824
-0.11159322 -1.570736 0.07010895 0.7143224 0.052958257 -1.4985168 -0.62755996 1.004481
0.017642854 -0.47623652 -0.21921106 -2.6285594 1.3700695 -0.045963537 -0.059999887 1.7812861
-1.8630642 -0.1172731 -1.3900102 -0.3295309 -1.6083932 -1.6036974 0.3023363 -1.023681
-0.5275063 -0.6740489 -2.3068295 0.43156427 -0.24717619 -1.3016557 -0.1440005 -0.29763213
0.010155157 -0.36185998 -0.99233395 -0.15161538 -0.42024088 1.4120935 0.38839704 0.20998614
1.5868688 0.14339127 -1.2205994 -0.40301144 -0.6419521 -0.65575504 -0.7335418 -1.1996425
-0.26899377 -0.42265037 0.16367114 -0.4637349 -0.9666908 0.81378293 0.07069459 -0.23694743
-0.06890095 -0.4137313 1.0251614 -0.7258709 0.5179294 0.46661896 -1.2160394 -0.2248321
0.0452248 -1.999311 1.072289 0.37878025 0.7573626 1.237667 0.92130643 -1.0635948
0.65468884 -0.029625325 -1.3452294 -0.004903284 -0.65007967 -1.4190466 -1.1589679 -0.30227113
-0.49864024 -1.1707109 0.21867391 -0.026225254 -0.75751865 -0.10682025 0.10912729 0.42949733
-0.6551106 0.79267865 1.4905255 -1.5055369 1.1107467 -0.4494674 -0.7334926 -0.61236787
0.822272 -2.3171992 0.2106627 1.9608822 -0.16625178 -0.6314725 1.385569 0.4638641
0.11102185 0.35020316 0.75361437 -0.4241168 -0.6605796 0.41370276 -0.2459255 -1.6724986
-0.33611587 0.117982425 -2.2264028 -0.5901241 -1.8259978 -0.87975603 -0.0033176895 1.3969471
-0.16930111 0.2559842 0.8391591 -0.7217754 -0.90257406 -1.0324599 0.5541308 -0.18678108
-0.57505584 0.5251388 0.9643829 0.11959259 1.3308587 1.6539767 0.17275977 -0.8850707
-0.47235256 0.119351014 -0.2362577 -0.18395495 -1.7772758 0.3183878 0.86312675 -0.6711653
0.48475322 -0.78409576 -1.7897581 -1.3590716 -0.3537678 -0.13210543 -0.24340332 -0.8697323
-0.6111453 -0.82976615 0.29735488 -1.4561826 -4.213018 1.7696269 0.062216327 -0.87615615
-0.52310586 -0.5120135 -0.69442385 -0.18189615 2.9203649 -0.85266685 -0.3032915 0.50503194
00000000: 2948 b2bf 6f4c 40c0 5687 413b 5736 19bf
00000010: c2e5 9c3e 9a36 4bbe 2813 97bf e8f2 ab3f
00000020: 32d6 21be fbc2 44be c90f 50be ede0 b5be
00000030: 9a00 f3be a91d bd3f 0018 903e fac3 ea3e
00000040: ddfd a7be eb6f 6ebf d0c4 9b3f 1927 ac3e
00000050: 9bf0 8d3d b20d 8bbf 2162 cebf e443 9b3f
00000060: 86be 863f f1cb 3f3f 8516 89bf 40d6 aebf
00000070: 8372 8a3e af30 333f aa9c 683f 59e6 7abf
00000080: 07ee d1be 1ec2 a1bf 3358 37be 4299 113e
00000090: 69a4 e2be baff e73e 7a52 85bf 8a26 c0be
000000a0: 09a4 8e3e 1c09 aabe 8d33 3dbf 9205 7dbe
000000b0: 0bd1 82be e9ac 8ebe 0516 1c3f f3c8 81bf
000000c0: 6aa1 023f df67 a4bf ec8b 8a3f 2fb3 ac3f
000000d0: ed90 a6bf ebbe 353e 3b2b c83f 34a0 bb3f
000000e0: daf4 593f 4252 df3f 8c2d 023e f50b 3a3e
000000f0: 9cf7 eebf 60f3 9e3f a782 823f f774 20bf
00000100: d7dd bebf d4ff 0abf 21ed 9fbe d11e 04bf
00000110: ebdd 02c0 ece9 c5bf 40ca 53bf 1cb8 0a40
00000120: 2eae 71bd af54 af3f 1270 933f 77e2 0a40
00000130: ece1 3cbf 4aa2 0dc0 a197 5dbf 6836 3f3f
00000140: d3f1 9dbf 7b1b ad3e 1048 da3f 9630 1d3f
00000150: 823c b23c dac6 55be cf29 80bf d637 49bf
00000160: fc8a e4bd e10d c9bf 4895 8f3d d5dd 363f
00000170: c2ea 583d 66cf bfbf c5a7 20bf d592 803f
00000180: bf87 903c 46d5 f3be dd78 60be 513a 28c0
00000190: 705e af3f 4344 3cbd 71c2 75bd 2f01 e43f
000001a0: e378 eebf e12c f0bd dbeb b1bf 46b8 a8be
000001b0: d4df cdbf f545 cdbf d3cb 9a3e fb07 83bf
000001c0: a70a 07bf 788e 2cbf 18a3 13c0 fef5 dc3e
000001d0: c11b 7dbe a79c a6bf de74 13be 3d63 98be
000001e0: d161 263c b645 b9be 9909 7ebf 1041 1bbe
000001f0: d029 d7be 7bbf b43f fadb c63e 9b06 573e
00000200: 841e cb3f 29d5 123e 9a3c 9cbf 8457 cebe
00000210: f956 24bf 90df 27bf 65c9 3bbf e38d 99bf
00000220: 8db9 89be a165 d8be 6899 273e a96e edbe
00000230: 0c79 77bf 1454 503f 53c8 903d 59a2 72be
00000240: f11b 8dbd 97d4 d3be 7d38 833f add2 39bf
00000250: 0597 043f aee8 ee3e 2ea7 9bbf 633a 66be
00000260: a43d 393d 6ce9 ffbf c440 893f 7cef c13e
00000270: 84e2 413f df6b 9e3f bdda 6b3f e023 88bf
00000280: b099 273f cfb0 f2bc 7a30 acbf baab a0bb
00000290: 9f6b 26bf 52a3 b5bf 0f59 94bf 48c3 9abe
000002a0: c64d ffbe dbd9 95bf 0eec 5f3e 58d6 d6bc
000002b0: beec 41bf 93c4 dabd 217e df3d 13e7 db3e
000002c0: 54b5 27bf fdec 4a3f 8ac9 be3f 6fb5 c0bf
000002d0: f32c 8e3f 9720 e6be 2cc6 3bbf 24c4 1cbf
000002e0: 6b80 523f fe4c 14c0 f6b7 573e 30fe fa3f
000002f0: e83d 2abe 2fa8 21bf 535a b13f 987f ed3e
00000300: 6c5f e33d d44d b33e dfec 403f d625 d9be
00000310: bf1b 29bf d9d0 d33e e5d3 7bbe 6f14 d6bf
00000320: 6117 acbe c5a0 f13d 627d 0ec0 5f12 17bf
00000330: 4cba e9bf b137 61bf 986d 59bb 2acf b23f
00000340: 455d 2dbe 5c10 833e 21d3 563f 46c6 38bf
00000350: 180f 67bf a527 84bf 84db 0d3f 8a43 3fbe
00000360: dc36 13bf 7f6f 063f cce1 763f f6ec f43d
00000370: 9459 aa3f 82b5 d33f f0e7 303e fe93 62bf
00000380: 32d8 f1be 4e6e f43d 8aed 71be b05e 3cbe
00000390: c67d e3bf ba03 a33e e0f5 5c3f 7dd1 2bbf
000003a0: 9331 f83e 80ba 48bf cb16 e5bf 0ff6 adbf
000003b0: 0e21 b5be a546 07be b83e 79be c7a6 5ebf
000003c0: 0574 1cbf 8e6b 54bf e63e 983e 3164 babf
000003d0: 0bd1 86c0 2283 e23f 8cd6 7e3d c54b 60bf
000003e0: 44ea 05bf 5113 03bf c3c5 31bf fc42 3abe
000003f0: 42e7 3a40 6048 5abf 0649 9bbe c649 013f

fc.1.bias f4 [128]
0.0 0.0 0.0 0.0 0.0 0.0 0.0 0.0
0.0 0.0 0.0 0.0 0.0 0.0 0.0 0.0
0.0 0.0 0.0 0.0 0.0 0.0 0.0 0.0
0.0 0.0 0.0 0.0 0.0 0.0 0.0 0.0
0.0 0.0 0.0 0.0 0.0 0.0 0.0 0.0
0.0 0.0 0.0 0.0 0.0 0.0 0.0 0.0
0.0 0.0 0.0 0.0 0.0 0.0 0.0 0.0
0.0 0.0 0.0 0.0 0.0 0.0 0.0 0.0
0.0 0.0 0.0 0.0 0.0 0.0 0.0 0.0
0.0 0.0 0.0 0.0 0.0 0.0 0.0 0.0
0.0 0.0 0.0 0.0 0.0 0.0 0.0 0.0
0.0 0.0 0.0 0.0 0.0 0.0 0.0 0.0
0.0 0.0 0.0 0.0 0.0 0.0 0.0 0.0
0.0 0.0 0.0 0.0 0.0 0.0 0.0 0.0
0.0 0.0 0.0 0.0 0.0 0.0 0.0 0.0
0.0 0.0 0.0 0.0 0.0 0.0 0.0 0.0
00000000: 0000 0000 0000 0000 0000 0000 0000 0000
00000010: 0000 0000 0000 0000 0000 0000 0000 0000
00000020: 0000 0000 0000 0000 0000 0000 0000 0000
00000030: 0000 0000 0000 0000 0000 0000 0000 0000
00000040: 0000 0000 0000 0000 0000 0000 0000 0000
00000050: 0000 0000 0000 0000 0000 0000 0000 0000
00000060: 0000 0000 0000 0000 0000 0000 0000 0000
00000070: 0000 0000 0000 0000 0000 0000 0000 0000
00000080: 0000 0000 0000 0000 0000 0000 0000 0000
00000090: 0000 0000 0000 0000 0000 0000 0000 0000
000000a0: 0000 0000 0000 0000 0000 0000 0000 0000
000000b0: 0000 0000 0000 0000 0000 0000 0000 0000
000000c0: 0000 0000 0000 0000 0000 0000 0000 0000
000000d0: 0000 0000 0000 0000 0000 0000 0000 0000
000000e0: 0000 0000 0000 0000 0000 0000 0000 0000
000000f0: 0000 0000 0000 0000 0000 0000 0000 0000
00000100: 0000 0000 0000 0000 0000 0000 0000 0000
00000110: 0000 0000 0000 0000 0000 0000 0000 0000
00000120: 0000 0000 0000 0000 0000 0000 0000 0000
00000130: 0000 0000 0000 0000 0000 0000 0000 0000
00000140: 0000 0000 0000 0000 0000 0000 0000 0000
00000150: 0000 0000 0000 0000 0000 0000 0000 0000
00000160: 0000 0000 0000 0000 0000 0000 0000 0000
00000170: 0000 0000 0000 0000 0000 0000 0000 0000
00000180: 0000 0000 0000 0000 0000 0000 0000 0000
00000190: 0000 0000 0000 0000 0000 0000 0000 0000
000001a0: 0000 0000 0000 0000 0000 0000 0000 0000
000001b0: 0000 0000 0000 0000 0000 0000 0000 0000
000001c0: 0000 0000 0000 0000 0000 0000 0000 0000
000001d0: 0000 0000 0000 0000 0000 0000 0000 0000
000001e0: 0000 0000 0000 0000 0000 0000 0000 0000
000001f0: 0000 0000 0000 0000 0000 0000 0000 0000
